…
for i, image_idx in enumerate(random_test):    #랜덤하게 뽑은 이미지를 차례로 나열합니다.
   ax = plt.subplot(2, 7, i + 1) 
   plt.imshow(X_test[image_idx].reshape(28, 28))  #테스트할 이미지를 먼저 그대로 보여줍니다.
   ax.axis('off')
   ax = plt.subplot(2, 7, 7 + i +1)
   plt.imshow(ae_imgs[image_idx].reshape(28, 28))  #오토인코딩 결과를 다음열에 출력합니다.
   ax.axis('off')
plt.show()

```

    Model: "sequential_5"
    _________________________________________________________________
     Layer (type)                Output Shape              Param #   
    =================================================================
     conv2d_7 (Conv2D)           (None, 28, 28, 16)        160       
                                                                     
     max_pooling2d_2 (MaxPooling  (None, 14, 14, 16)       0         
     2D)                                                             
                                                                     
     conv2d_8 (Conv2D)           (None, 14, 14, 8)         1160      
                                                                     
     max_pooling2d_3 (MaxPooling  (None, 7, 7, 8)          0         
     2D)                                                             
                                                                     
     conv2d_9 (Conv2D)           (None, 4, 4, 8)           584       
                                                                     
     conv2d_10 (Conv2D)          (None, 4, 4, 8)           584       
                                                                     
     up_sampling2d_2 (UpSampling  (None, 8, 8, 8)          0         
     2D)                                                             
                                                                     
     conv2d_11 (Conv2D)          (None, 8, 8, 8)           584       
                                                                     
     up_sampling2d_3 (UpSampling  (None, 16, 16, 8)        0         
     2D)                                                             
                                                                     
     conv2d_12 (Conv2D)          (None, 14, 14, 16)        1168      
                                                                     
     up_sampling2d_4 (UpSampling  (None, 28, 28, 16)       0         
     2D)                                                             
                                                                     
     conv2d_13 (Conv2D)          (None, 28, 28, 1)         145       
                                                                     
    =================================================================
    Total params: 4,385
    Trainable params: 4,385
    Non-trainable params: 0
    _________________________________________________________________
    Epoch 1/50
    469/469 [==============================] - 13s 27ms/step - loss: 0.2156 - val_loss: 0.1405
…
